iris.pt (torch, 2922 bytes, 6 tensors)

input.weight f4 [8, 4]
-0.041915357 -0.017143428 -0.18750167 0.115021646 -0.4662167 -0.2683365 0.013630043 0.2891469
0.25827992 0.6148783 -0.4223143 -0.77425957 0.02510101 -0.29524916 0.5514376 1.1875039
-0.20762634 -0.017670989 0.11499262 -0.003265977 -0.047887564 -0.44248277 -0.43130398 -0.44992995
-0.48924357 -0.4656747 -0.37878096 -0.45096827 -0.23263703 0.09156948 1.0794069 1.2825102
00000000: 70af 2bbd 6070 8cbc 7000 40be 7890 eb3d
00000010: f5b3 eebe 6763 89be 8b50 5f3c 100b 943e
00000020: 443d 843e aa68 1d3f 9439 d8be e035 46bf
00000030: a2a0 cd3c e62a 97be 042b 0d3f 2100 983f
00000040: 009c 54be c0c2 90bc 4081 eb3d 000a 56bb
00000050: c025 44bd 1a8d e2be e0d3 dcbe 385d e6be
00000060: 227e fabe ea6c eebe 94ef c1be 50e5 e6be
00000070: 6738 6ebe c888 bb3d 012a 8a3f 4b29 a43f

input.bias f4 [8]
0.26936007 -0.010733711 1.8811395 -1.7587216 0.45017546 -0.034481645 0.43140107 -0.41970903
00000000: 90e9 893e 72dc 2fbc 2ec9 f03f ca1d e1bf
00000010: 667d e63e a03c 0dbd 9ae0 dc3e 1ae4 d6be

hidden.weight f4 [8, 8]
0.27673203 0.28202862 -0.07386989 -0.25622454 0.053198636 -0.0150260255 0.055300288 0.025962263
-0.27627167 0.16393767 -0.67908156 1.0490947 -0.24865566 0.067620784 -0.09659771 1.0186753
0.0011876139 -0.2157194 0.9616362 -0.25265443 -0.25658095 -0.3410119 0.029466042 -0.82702553
0.08069115 0.32658252 0.85143524 -0.7855844 -0.24211784 0.27429378 0.33885592 -0.66338015
-0.22627635 0.123749554 -0.25284827 -0.08555536 -0.34969416 0.0967236 -0.12055436 -0.19780444
-0.22482136 0.05575656 -0.56936836 0.7402522 0.30445907 -0.12636586 -0.10346659 1.049463
-0.33723652 -0.31932837 -1.4926525 1.0574713 0.18822901 -0.11846206 -0.1500926 0.5945921
-0.11951569 0.10977117 1.0263816 -0.7163954 -0.008847592 0.20759742 0.30112633 0.38799286
00000000: d2af 8d3e 0e66 903e 1949 97bd dd2f 83be
00000010: d0e6 593d b82f 76bc 8e82 623d d0ae d43c
00000020: 7b73 8dbe 47df 273e 4ad8 2dbf bc48 863f
00000030: 979f 7ebe c47c 8a3d 05d5 c5bd f463 823f
00000040: b6a9 9b3a 8ce5 5cbe ca2d 763f ec5b 81be
00000050: 945e 83be 1d99 aebe c562 f13c f2b7 53bf
00000060: 6741 a53d d335 a73e a9f7 593f 0f1c 49bf
00000070: bded 77be 3c70 8c3e 867e ad3e 48d3 29bf
00000080: fdb4 67be 6870 fd3d 5475 81be a637 afbd
00000090: 1d0b b3be 0617 c63d 34e5 f6bd 3f8d 4abe
000000a0: 9237 66be fe60 643d 20c2 11bf 2b81 3d3f
000000b0: 0fe2 9b3e 0d66 01be 4be6 d3bd ce54 863f
000000c0: 44aa acbe 027f a3be 3d0f bfbf 385b 873f
000000d0: 1bbf 403e 3d9c f2bd e0b1 19be 3037 183f
000000e0: a4c4 f4bd b5cf e03d 7960 833f b065 37bf
000000f0: 7ef5 10bc 6b94 543e 3b2d 9a3e 00a7 c63e

hidden.bias f4 [8]
-0.3633692 -0.19914965 0.59814453 0.6893515 -0.1178758 -0.74514604 -1.0089253 1.5756648
00000000: 870b babe e3ed 4bbe 0020 193f 5779 303f
00000010: de68 f1bd e4c1 3ebf 7724 81bf 62af c93f

output.weight f4 [3, 8]
0.08219234 -0.955641 0.63077617 0.81026685 -0.008875283 -1.057523 -0.53956133 0.6322864
0.1488244 0.041108552 -1.0466881 -1.0625613 0.24524935 -0.06462587 -1.5128769 1.3178524
-0.16061461 0.61898553 -0.24284652 -0.9092906 -0.08418028 0.5716952 1.0608516 -1.5057911
00000000: 7554 a83d e3a4 74bf 8c7a 213f a66d 4f3f
00000010: a369 11bc ea5c 87bf b120 0abf 86dd 213f
00000020: 6c65 183e 7161 283d e0f9 85bf 0202 88bf
00000030: a522 7b3e 915a 84bd f3a5 c1bf 63af a83f
00000040: 2878 24be d675 1e3f c2ac 78be 45c7 68bf
00000050: b666 acbd 9e5a 123f fcc9 873f c3bd c0bf

output.bias f4 [3]
0.8162688 0.73306185 -1.1304814
00000000: fef6 503f f1a9 3b3f 9db3 90bf
