mnist-cnn.pt (torch, 243860 bytes, 10 tensors)

conv1.weight f4 [6, 1, 3, 3]
000000 18 62 23 bf c8 41 75 be 8e f2 bd 3e 8e 74 06 bf
       -0.63821554 -0.23950875 0.37099117 -0.525216
000010 a6 1c 38 bd 33 15 e4 3e 55 59 e0 bd d5 b8 df 3e
       -0.044949196 0.44547424 -0.10954539 0.43695703
000020 1c c1 f0 3e 84 9b 15 3e 2d 75 b4 3d e2 c1 00 3e
       0.4702233 0.14610106 0.08811412 0.1257396
000030 67 56 eb 3e 23 f3 a3 3e a8 43 ab bd 59 86 f6 3e
       0.45964357 0.32021436 -0.08362514 0.48149374
000040 8f 50 03 3f b2 db 55 3e f0 2c 7a be 72 3b f6 be
       0.512948 0.20884588 -0.24431205 -0.48092228
000050 cd 11 28 bf 6b 0e cb 3e c8 ed 92 3d 2d 62 b7 3e
       -0.6565216 0.39659438 0.071742594 0.3581709
000060 96 dd d6 3e 63 3d 7b 3e 87 1d c5 3d 4c 40 78 3e
       0.41965932 0.24535136 0.096247725 0.24243277
000070 6d 4e 5b be 6e 54 84 be 85 b4 a8 3e b0 6a 54 bd
       -0.21416636 -0.25845665 0.32950225 -0.051859558
000080 51 4a 87 bd 39 77 9f 3d 44 54 ab 3e d8 e3 10 3f
       -0.066059716 0.07786412 0.33462727 0.5659766
000090 c9 58 a7 3e 42 6f cd 3d 75 92 be 3e 8b f0 5d 3d
       0.32684925 0.10030986 0.37221113 0.054184478
0000a0 eb 48 b7 3e 13 ce bf 3e f4 98 1d be 95 d4 d2 be
       0.3579782 0.3746191 -0.15390378 -0.41177812
0000b0 aa 88 bb 3e f7 38 a3 3d 57 85 da 3e 28 a2 74 be
       0.36627704 0.079698496 0.42679855 -0.23889983
0000c0 ec 4d 2e 3e 20 7e dd 3e a9 51 18 bf 79 97 87 3e
       0.17021912 0.43260288 -0.59499604 0.26482752
0000d0 93 52 29 3e a8 88 00 bf
       0.16535406 -0.5020852

conv1.bias f4 [6]
000000 da d7 e1 bd bc ae 80 be 58 73 89 3d fd 46 10 be
       -0.110274985 -0.25133312 0.06711453 -0.1408958
000010 2c 9c e8 bc 6b 7a b5 bd
       -0.028394781 -0.0886124

conv2.weight f4 [16, 6, 3, 3]
000000 fd 98 01 be 1b 91 37 bc 4f 46 54 be 85 c7 6c 3d
       -0.12656017 -0.011204029 -0.20729946 0.057807464
000010 8b b3 5f 3e de 6c 71 be f7 54 7a 3d 73 86 40 3e
       0.21845834 -0.23576686 0.061116185 0.18801288
000020 2d 6e 3e 3c dc 7f b4 bd 40 7f 33 3e d3 fa 9f 3d
       0.011622948 -0.0881345 0.17529011 0.07811513
000030 ef b7 cd be 01 3f 0a 3d 8b e3 a9 3d 1e 8e 82 bd
       -0.40179393 0.03375149 0.082953535 -0.06374763
000040 14 62 b0 bd b2 09 21 3e 0c 27 09 be 75 bb db bd
       -0.08612457 0.15726355 -0.13393801 -0.10729114
000050 8e 89 5e 3d a0 60 52 be 07 0f 8b be c6 1f 03 3e
       0.0543304 -0.20544672 -0.27159902 0.1280509
000060 90 64 0b be 48 94 81 be c4 18 0c 3e 64 3c 0c be
       -0.1361258 -0.25308442 0.13681322 -0.13694912
000070 94 10 4a 3d 89 64 ab bc cc 71 7f be 13 6c a2 3d
       0.049332216 -0.020921962 -0.24945754 0.0793077
000080 c8 8e ef 3d 3f 99 53 be 6e 20 8f 3d 1a e5 c9 3d
       0.11697155 -0.20663927 0.06988607 0.09858151
000090 ff 93 97 3d 59 cf 69 bd d9 19 85 bd c6 91 4e be
       0.07401275 -0.057082508 -0.06499071 -0.20172796
0000a0 e4 63 25 3d 0f c6 cf 3d d8 90 a7 bd 94 44 40 3e
       0.040378466 0.101451986 -0.08181924 0.1877616
0000b0 2e d4 5d bb c7 1f 31 be a0 f5 fa bd a4 11 26 3e
       -0.0033848393 -0.17297278 -0.122538805 0.16217667
0000c0 2c 74 aa be 66 17 d3 bd 10 28 b5 3e 15 93 f8 bc
       -0.33291757 -0.10307197 0.35382128 -0.030343572
0000d0 9b a8 5f be 07 75 26 3e 84 05 79 3e 3c 3e 89 bb
       -0.21841662 0.1625558 0.2431851 -0.004188327
0000e0 9b 53 37 bd f1 a0 db bd 0b 01 d1 bd 1a ea 96 be
       -0.044757467 -0.107240565 -0.10205277 -0.2947548
0000f0 d5 62 08 3e d3 5a a2 bd f7 3a a5 be 88 ab a4 38
       0.13318951 -0.079274796 -0.3227155 7.8520796e-05
000100 9f 38 16 3e 70 d4 2c 3e 82 22 6e 3c bc 66 79 bd
       0.14670037 0.16877913 0.0145345945 -0.06088899
000110 8e 6f 25 3e dc f3 b1 bd a2 36 b1 3d 18 61 87 3c
       0.16155836 -0.086890906 0.086529985 0.01652579
000120 bd 01 5c be c0 aa 51 be 05 d5 26 be 10 bf 4e be
       -0.21485038 -0.20475292 -0.16292198 -0.20190072
000130 b5 68 80 be ff ab 89 bd d8 55 ce be 7f a1 7d be
       -0.25079885 -0.06722259 -0.4029987 -0.24768637
000140 83 9f 2c 3e bc 20 f0 3d f2 da f5 3d 29 c6 92 3d
       0.16857724 0.117249936 0.12004651 0.07166702
000150 31 1a 09 3d e9 ac 14 3e b0 20 1d bd c1 45 53 be
       0.033472244 0.14519085 -0.03836125 -0.20632078
000160 2c 00 0b 3e 9c 9b 8f 3e 42 fc bf bd 27 48 9a 3d
       0.13574284 0.28048408 -0.09374286 0.07533293
000170 26 eb b3 bd 16 7b 14 bc 3d 8c 0a 3e 1e eb e0 bd
       -0.087850854 -0.009062549 0.13530059 -0.10982345
000180 f0 71 3d 3d 48 34 0e 3e e6 cf 05 3e 38 25 90 be
       0.046251237 0.13887131 0.13067588 -0.28153396
000190 5b 95 ba 3d 8f 94 d2 3b b0 7c 94 be 82 e6 bb bd
       0.091105185 0.006426401 -0.2900138 -0.09174825
0001a0 ef a6 16 3e 93 98 8c be d8 a1 54 3c de fa 14 3e
       0.14712118 -0.27460155 0.01297804 0.14548823
0001b0 4e 12 67 bc 98 d3 89 3e 9e b8 a5 3d e5 7d a9 be
       -0.014103485 0.26919246 0.080918536 -0.33103862
0001c0 fb c0 97 be 31 13 c0 be 40 fc b6 be 80 7f 1b be
       -0.2963942 -0.37514642 -0.35739326 -0.15185356
0001d0 5f 37 83 3d 4c 1f 74 3e ed f4 8a 3e a0 a1 9e 3e
       0.064070456 0.23840064 0.2713999 0.30982685
0001e0 13 62 2f be 38 5f b0 bd a1 56 66 be d4 6f 58 be
       -0.17127256 -0.086119115 -0.22493984 -0.21136409
0001f0 77 8a 15 be 9c 17 ad bb 5b 94 89 3e 5d ea d4 3d
       -0.14603601 -0.0052823555 0.26871 0.10396264
000200 c8 35 82 3d a6 a4 82 be bc c0 cc bd da 70 c8 be
       0.06357914 -0.25516242 -0.09997699 -0.391486
000210 a7 7e 06 3e 06 39 aa 3d 79 df 8e 3e 14 80 42 3e
       0.13134252 0.083116576 0.2790487 0.1899417
000220 b4 d1 01 3e af 66 17 3e a9 e0 0a be 01 79 0d be
       0.12677652 0.14785264 -0.13562264 -0.1381569
000230 ef 29 bc be 7e 2b 37 be 9d 69 ae bd 47 82 14 3e
       -0.36750743 -0.17887685 -0.08516238 0.14502822
000240 1c 66 02 3e 06 b4 64 3e e3 38 57 3e 41 f9 0d 3e
       0.12734264 0.22334298 0.21017794 0.13864614
000250 d5 45 f1 3d 59 0f 5f 3d 92 c3 17 be 71 3b b1 be
       0.117808975 0.054457996 -0.14820698 -0.34615663
000260 de cc b5 be 98 40 b0 bd c0 ce 26 3c e9 22 d3 3d
       -0.35507864 -0.0860607 0.010181129 0.10309393
000270 42 44 a1 be 72 63 d2 bc d7 a4 5f 3e d7 3a dc be
       -0.3149739 -0.025682185 0.21840225 -0.4301364
000280 2c 6b 98 be 2d 60 f6 be 88 37 9d 3d 03 2c 15 3d
       -0.29769266 -0.4812025 0.07676607 0.036418926
000290 dd 10 b9 3e 39 fa af bd ae 4d 84 be 4e 91 3d bc
       0.36145678 -0.08592648 -0.25840515 -0.011570288
0002a0 8b 87 1c be 9e 7c 49 be dc 6d a3 3b d0 be 4d bb
       -0.1528608 -0.19676444 0.0049874615 -0.003139425
0002b0 8c e3 60 be 17 b0 19 3c e6 2c 53 3d f4 7a 5c bd
       -0.21961802 0.009380362 0.05155649 -0.053828195
0002c0 4e 0b 9e be f1 c4 d8 3d 79 28 8a 3e 43 d5 03 3e
       -0.30868 0.105844386 0.26984003 0.12874322
0002d0 cf bc d9 3d f3 9a 45 be 98 f4 03 be 04 69 6e 3e
       0.106317155 -0.1929739 -0.12886274 0.23282248
0002e0 77 cb 39 3e 41 60 ab be cf 86 af 3c 4b a1 aa 3e
       0.18144022 -0.33471873 0.021426586 0.33326182
0002f0 17 a2 87 3e f1 b8 65 bc 29 0c 12 be 2f f7 b0 bd
       0.26490852 -0.014021144 -0.14262451 -0.086408965
000300 43 45 24 3e e4 c5 64 3c f0 a8 d1 be f3 7e 8d 3e
       0.16042046 0.013963196 -0.40949202 0.27635917
000310 93 c0 c5 3e ee 63 ea 3d 8e f1 77 bd 47 9f 0f be
       0.38623485 0.11444841 -0.0605331 -0.14025603
000320 cc aa 04 3e be 3e 77 bd ed ea 86 be 8c 01 3d be
       0.12955779 -0.06036257 -0.2635111 -0.18457621
000330 10 87 7e 3e 7f 48 93 3d c6 7c d8 bd c0 e7 ec 3d
       0.2485621 0.07191562 -0.10570674 0.1156764
000340 65 d4 82 bd ef 21 21 3e e8 32 38 3e f8 bb 44 3c
       -0.06388167 0.15735601 0.17988169 0.012007706
000350 cb 3e a7 3d bb ba 04 be 5f e8 03 3d f0 fa a5 3d
       0.08166274 -0.12961857 0.03220403 0.08104503
000360 63 49 be be 57 23 60 bd bf 6e c3 3d 2e b2 a0 be
       -0.37165365 -0.054721203 0.095426075 -0.3138594
000370 5e 3c b6 bd 74 3c 0c 3e 90 9a 0c be 14 50 ba 3a
       -0.08898233 0.13694936 -0.13730836 0.0014214539
000380 44 99 23 bd a1 88 56 3e 2f fc 32 bd cb 7b 95 3d
       -0.039941087 0.20950557 -0.043697532 0.07299002
000390 ab 0c d6 bd 20 d1 ba be 06 e5 fd 3d f8 8a 4d bd
       -0.10451635 -0.36487675 0.123971984 -0.05018136
0003a0 68 a4 8b be 8c e8 33 be d4 29 db 3d c1 f2 ef bc
       -0.2727387 -0.17569178 0.107013375 -0.029290559
0003b0 1e 87 c5 bd 59 c6 8d 3d cc df f9 bd 17 c8 f1 bd
       -0.09644912 0.069225974 -0.12200889 -0.11805742
0003c0 1a 5c da 3d c9 20 93 be f2 60 af be b9 96 66 3d
       0.10662098 -0.2873595 -0.3425365 0.056296084
0003d0 0b a6 86 be 95 25 25 3e 05 c0 fa bd fe ce 0f be
       -0.26298556 0.16127618 -0.12243656 -0.14043805
0003e0 aa 0e 9b bd 39 38 30 be c9 e1 bd be fe a6 ac 39
       -0.07571156 -0.17208947 -0.37086323 0.00032930815
0003f0 9c be 5c 3e 58 c4 1b 3c bf c2 a9 3e b2 e1 de bd
       0.21557087 0.009507261 0.33156392 -0.10882892

conv2.bias f4 [16]
000000 35 5d 47 be 8f 8e 7e be 62 8a 4e bc 7a e3 4b be
       -0.1946915 -0.2485907 -0.012606235 -0.19910994
000010 10 11 4a 3c ab 78 7c bd e3 da fa bd 95 02 81 be
       0.01233317 -0.061638515 -0.122487806 -0.25197282
000020 b1 d4 1f be 27 07 52 be 5f 1f ea 3c fa a8 d9 bd
       -0.15608479 -0.20510541 0.028579412 -0.10627933
000030 d9 4c 68 be 74 a6 ad be 99 72 92 be b1 3f e8 bd
       -0.22685565 -0.33916056 -0.28603056 -0.11340273

fc1.weight f4 [120, 400]
000000 3a c6 4c 3a 5e 4e f6 3c cc 95 88 3c 9a ba 3d bd
       0.00078115205 0.030066665 0.016672991 -0.046320535
000010 e6 2c 39 bd 4d 93 88 3c 83 84 70 bc ac ea 75 bd
       -0.045208834 0.016671801 -0.014680031 -0.060038254
000020 02 77 22 3b 7c 20 0d 3d 29 83 10 bd 7b de 0e bd
       0.0024790172 0.034454808 -0.035281334 -0.034880143
000030 df 4d 42 bb bf a8 e1 bc 4c 2f 11 3d 98 e0 06 bd
       -0.0029648466 -0.027546285 0.035445496 -0.032929033
000040 ec 87 bc bc 9b b7 2b 3a 0b cf 64 bd 4d 51 1c bc
       -0.023014031 0.00065504917 -0.055861514 -0.009540868
000050 1b 71 2f 3d 65 b5 66 bd 7e 3a c0 bc c4 56 eb 3c
       0.042832475 -0.056325335 -0.023465391 0.028727897
000060 65 34 04 3c 28 f2 a7 bc 22 a1 1f 3d c0 e1 90 bc
       0.008069132 -0.020501211 0.038972028 -0.017685771
000070 e7 00 93 bb c7 24 d1 bc f1 2b 10 3c f2 17 85 ba
       -0.0044861916 -0.025530232 0.008799539 -0.0010154231
000080 e4 6f 82 bd bd 5b 3b bc 85 ab 23 3d 77 65 37 3d
       -0.06368998 -0.011435446 0.039958496 0.0447745
000090 e7 6a b4 3c e6 59 5d bd 33 0d ec bc b8 a4 e9 3c
       0.022023631 -0.054040812 -0.028814888 0.028520927
0000a0 71 bf 01 bd 91 77 5a bd 17 25 2f 3c e5 b6 45 bd
       -0.031676713 -0.053336684 0.010689995 -0.048270125
0000b0 ca b7 f1 3b 56 a5 6f bc cf 64 db bb a9 04 9d bd
       0.0073766457 -0.0146268215 -0.006695367 -0.076669045
0000c0 bb f0 a0 bb 1d 54 9d bc b8 2e 82 bc 73 7c 1a bd
       -0.00491151 -0.019205147 -0.015891418 -0.03771634
0000d0 56 7c 16 bd 0c b1 01 bb 99 80 02 3d 49 ad dc bb
       -0.03673967 -0.0019789366 0.03186092 -0.0067345244
0000e0 1c 7d 94 bd 95 e7 a3 bc 45 5e 2f bc bc 80 7e bc
       -0.07250425 -0.020007888 -0.010703628 -0.015533622
0000f0 46 a8 ba bb 2e ad 98 3b 52 83 22 bd d8 c9 60 3c
       -0.0056963293 0.0046593165 -0.039676018 0.013719998
000100 a7 07 02 3d 31 06 10 bd 2a ac 37 bb 5a 9f 9a bc
       0.03174558 -0.035162155 -0.0028026202 -0.018874813
000110 a6 7d dd bb 8d 54 11 3c 81 72 d4 3b ae b3 62 bd
       -0.006759363 0.008870256 0.0064833765 -0.055347137
000120 9d 16 75 bc bf 9d 48 3c 6e 40 20 3d 24 1e 96 bb
       -0.014959005 0.012244641 0.039123945 -0.0045812298
000130 b6 4a 22 bc 64 9b 83 3b 18 0e ac 3a 5b 18 96 bd
       -0.009905508 0.0040163267 0.0013126759 -0.07328864
000140 7d 60 7a bd fc d8 28 bc bc 69 68 bd d9 31 2d bd
       -0.061127175 -0.010305639 -0.05674146 -0.042283867
000150 82 69 79 bd cf 62 a6 bd 48 b1 4b bd 2c fa c9 3b
       -0.060891636 -0.08124315 -0.049729615 0.006163856
000160 0e c8 9e bc f8 e3 a2 bd 63 84 95 bc 27 ba 26 3c
       -0.019382503 -0.07953638 -0.018251603 0.010176218
000170 43 ce 3e 3c a4 f6 8e bb d0 16 5d bc 5a 41 24 3d
       0.011645856 -0.004362898 -0.013494208 0.040101387
000180 54 3c 47 bd 62 f1 1f bd 10 b9 3b bc cd b0 44 bd
       -0.048641518 -0.03904856 -0.011457697 -0.048020173
000190 4a 6b 70 bc f3 98 05 bd 66 8e 87 3b 63 68 c4 3c
       -0.014674017 -0.032616567 0.0041368483 0.023975557
0001a0 5a ba e1 bb f2 a8 4a bb 22 30 8e bb 7b 4f 64 bd
       -0.00688867 -0.0030923453 -0.004339234 -0.05573986
0001b0 19 1d ca 3c 4b 16 b7 bc 28 13 43 bc c0 c8 b2 bd
       0.024672078 -0.022349497 -0.011906423 -0.08729696
0001c0 f3 bd 3a bd 1a ff 36 3c 45 59 06 bb 0a 9e e4 bc
       -0.045591306 0.011169219 -0.0020499986 -0.02790739
0001d0 83 9f 0c 3c 7e 5e 70 bd 62 9c 22 bb 47 f5 3d 3c
       0.008582952 -0.058683865 -0.002481245 0.011594123
0001e0 80 78 95 3c ac 58 93 bc 9c d7 16 3c cf 7f b0 3b
       0.018245935 -0.017986618 0.009206679 0.0053863297
0001f0 e0 b3 a4 3c 69 20 76 bd 42 e6 6a bd 9e 71 a9 bc
       0.020105302 -0.060089502 -0.057348497 -0.02068406
000200 0f cc ec bc 7a 60 62 bd 44 0c f0 bc 1b 44 c2 bc
       -0.028905896 -0.05526779 -0.029302724 -0.023714116
000210 84 28 b7 bb 4d 39 dd bc 9e 9e 87 bc 2f 68 e7 bc
       -0.0055895466 -0.027004862 -0.016555127 -0.02824792
000220 47 4a 21 bd 9e a0 83 bd ee 70 2a bc d8 94 c5 bc
       -0.039377477 -0.0642712 -0.010402901 -0.024118826
000230 b7 d6 34 bd 35 c1 4d bc 81 cf 24 bd 72 9c 96 bc
       -0.04415008 -0.012558271 -0.040236954 -0.018385146
000240 f9 3a 7b bb 2b 84 61 bd 1d 1d e6 3c bb 9e bb 3c
       -0.003833471 -0.055057686 0.028090054 0.022902837
000250 2a ed 83 bd f2 81 48 bd 1f 72 25 bb 89 0b f7 bc
       -0.0644172 -0.04895205 -0.0025245023 -0.030156868
000260 95 d8 0b bd 7e f7 84 bd 34 89 e8 3c 56 d4 18 bd
       -0.034142096 -0.06492518 0.028385736 -0.037311874
000270 8f 0e 21 3c 6e e8 cc bc 06 b0 af bc 99 8e aa bd
       0.009830131 -0.025013175 -0.02144624 -0.083279796
000280 07 2f 1d bd 6e b2 56 3c 39 d5 19 bd 7f ff 16 bd
       -0.038374927 0.013104064 -0.03755686 -0.036864754
000290 c8 6c 6b bd 24 04 f3 bb 98 b9 0b 3c c3 9f d2 bc
       -0.05747679 -0.007416265 0.008528136 -0.025710946
0002a0 52 98 bd bd 2a 07 5c bd 4c d9 84 bc 2d c6 28 bd
       -0.092575684 -0.05371777 -0.016216896 -0.04120462
0002b0 d7 98 66 bc 18 30 35 bb 40 78 e1 bc 53 bf 44 bd
       -0.014074526 -0.0027647074 -0.02752316 -0.048034023
0002c0 dc 1e 44 bc f5 4a 37 bd ab ad a1 3c 77 e1 51 3c
       -0.011970248 -0.04474922 0.019736132 0.012810103
0002d0 29 9a 00 bd 52 fd be bc 65 db aa 3b 10 9b d5 3c
       -0.03139702 -0.023314152 0.005214142 0.026074916
0002e0 75 c0 c0 3c 34 1e 36 bd 44 4c bb bb d3 05 3e bd
       0.02352927 -0.044462398 -0.0057158787 -0.046392273
0002f0 b9 06 ec 3a 4b cd f9 bb f1 f8 dc bb d2 3f 50 bd
       0.0018007375 -0.00762335 -0.0067435433 -0.050842114
000300 ac 1a bc bc 83 0c 07 bd 21 6e 20 bd 82 fc 06 bd
       -0.022961937 -0.032970916 -0.039167527 -0.032955654
000310 48 0e 24 bd 29 6e 1b 3c 36 09 46 bd e3 c5 55 bd
       -0.040052682 0.009486713 -0.048348628 -0.052190673
000320 00 e2 cb 3a 1d b6 91 3c 67 da 2b ba 83 08 9b 3c
       0.0015555024 0.017787034 -0.0006555677 0.018924957
000330 e3 5d 99 3c a3 96 c4 bc e2 c8 1e bd e5 9e 44 3d
       0.018721526 -0.02399761 -0.038765796 0.048003096
000340 3d 8e 33 bd 33 88 25 bd 20 ea 19 bc 23 85 f7 3c
       -0.04383682 -0.040413093 -0.009394199 0.030214852
000350 33 db 9b ba e7 8b f0 bb b3 d3 1a bb d2 f7 2b 3d
       -0.0011890888 -0.0073408964 -0.0023624718 0.041984387
000360 e3 46 ad 3c 68 c2 43 bd 00 b2 82 ba b3 05 84 3c
       0.021151965 -0.047792822 -0.0009971261 0.016115999
000370 a2 2a 24 3d 03 47 07 bd b3 16 08 3b 08 f4 23 3d
       0.04007972 -0.033026706 0.0020765483 0.04002765
000380 5a f5 05 3c 3e e8 d4 3c a5 75 94 bc f1 5e e5 39
       0.008176172 0.025989648 -0.018122504 0.0004374902
000390 be 04 83 bc c4 f6 f6 bc da c8 a9 bc 33 32 ec bc
       -0.015993472 -0.030146964 -0.020725656 -0.02883253
0003a0 5d f1 ad bc 15 54 9d 3c c8 04 3f 3c fe dc 51 bc
       -0.021233255 0.019205132 0.011658855 -0.012809036
0003b0 ab 09 8e bd c0 e7 80 bd 61 91 8d bd 14 6a 3e bd
       -0.06935438 -0.06294203 -0.069124945 -0.046487883
0003c0 63 69 c1 3c 89 ee b8 bc 57 47 8f bc 40 63 52 bd
       0.023609823 -0.02257468 -0.017490072 -0.051364183
0003d0 46 62 5f bd 43 df 41 bd ed e5 a2 3b 27 ee c4 3a
       -0.05453708 -0.04733206 0.004971257 0.0015024588
0003e0 33 cf 7d bd 4d 7b fc bc 1f 44 17 bd 47 4f e2 bb
       -0.06196518 -0.030820513 -0.0369302 -0.0069064233
0003f0 2f 2e 02 3d c1 8c 25 3c d1 19 85 3c fc 88 cc bc
       0.031782325 0.010104359 0.016247662 -0.024967663

fc1.bias f4 [120]
000000 ba fd c9 bc 02 d1 32 bd 5e e1 7f 3c ce 51 a5 bd
       -0.024657119 -0.043656357 0.015617697 -0.08072244
000010 f6 cb 47 bc d8 ed fb 3c 0a 58 fe 3b e0 51 5a bd
       -0.012194624 0.030753061 0.00776196 -0.05330074
000020 6c f3 18 3d 2a 30 ff bc 08 c8 78 bd ad e7 5c bd
       0.03734152 -0.031150896 -0.06073764 -0.05393188
000030 36 80 7a 3c b5 6d 26 bd 64 2e a9 bd 50 5d a2 bc
       0.015289357 -0.04063197 -0.082608014 -0.019819885
000040 42 47 52 bd 6a b6 e1 3c de c0 ac 3c f8 68 f6 3c
       -0.051337488 0.027552802 0.02108806 0.03007935
000050 68 bf 51 3c 45 34 f0 3c ba d1 70 bd 3a 51 86 bc
       0.012801982 0.029321799 -0.05879376 -0.016396154
000060 32 48 21 3d d7 f1 c8 3c 54 1f 3c bd e7 5b 86 3d
       0.03937549 0.02452938 -0.045928314 0.06560498
000070 1e c5 8e 3c b8 be 23 3d a5 f5 79 3c b1 f8 b4 bc
       0.017427977 0.039976805 0.01525632 -0.022091242
000080 7b 01 9b bd 26 56 c9 bc a0 b5 db 3c 1b 40 07 3d
       -0.07568642 -0.024577212 0.026820004 0.03302012
000090 f1 4a bc 3a 07 87 0a bc f7 25 48 3c 2a b6 c5 bd
       0.0014365596 -0.008455045 0.012216083 -0.09653886
0000a0 b1 f6 b5 3c b0 2d f8 3c 64 70 10 bd d5 a3 14 3d
       0.022212358 0.030295223 -0.035263434 0.036289055
0000b0 16 ed 87 bd f6 b5 e1 bc b1 80 ed bc d5 63 a8 bd
       -0.066370174 -0.027552586 -0.028992029 -0.082221664
0000c0 9a 7e e5 bb fe 86 8d bd e8 be 57 3d 58 93 2b 3d
       -0.0070036175 -0.06910513 0.052672297 0.041888565
0000d0 3c 07 b7 bc 09 1d d2 bc 00 a2 b2 3b 6b 40 4a ba
       -0.022342317 -0.02564861 0.005451441 -0.00077152875
0000e0 d7 e5 58 3d 72 85 ce bb ff fb 0c 3d bb bf 78 bc
       0.052953567 -0.006302529 0.03442001 -0.015182431
0000f0 8f 61 27 3d 6f a4 39 3d 41 99 63 bc a4 a2 26 bd
       0.040864524 0.04532283 -0.013891519 -0.04068245
000100 e1 d7 79 bc e4 cb 63 3c c2 77 a7 3b 12 b5 1a 3d
       -0.015249223 0.013903592 0.005110712 0.03777034
000110 03 79 62 bd 29 86 3b 3d 17 01 8e 3d 19 76 7c bd
       -0.055291187 0.045782242 0.069338016 -0.061636064
000120 30 ab 24 3b 62 88 68 3d 55 39 74 39 90 a8 76 bc
       0.002512645 0.05677069 0.00023291011 -0.015054837
000130 94 ff 21 bc cc 45 67 3c 24 2e e9 bc 85 fd 4f 3d
       -0.009887595 0.014115762 -0.028464384 0.050778884
000140 96 40 85 3d 57 85 54 3c 6a ee f5 bc fc 78 25 bd
       0.065064594 0.012971244 -0.030020911 -0.040398583
000150 2b a8 68 3d 20 63 75 bd 6f 28 75 bd e7 4a f0 bc
       0.056801002 -0.059908986 -0.059853014 -0.029332591
000160 24 e1 d7 3c 60 37 8a 3d 91 53 2d 3c 55 64 72 3d
       0.026352473 0.06748843 0.010579006 0.059177715
000170 28 87 3f 3d 23 c9 7a bd 47 41 28 3c 35 32 a1 bc
       0.046759754 -0.061226975 0.01026947 -0.01967726
000180 98 9e 15 3d 77 b9 16 bc 4d 02 8a 3d de 46 1d 3d
       0.0365282 -0.009199492 0.0673872 0.038397662
000190 41 c9 7c 3d 29 b1 9e bb c7 12 2a bc 9d 88 47 bd
       0.06171537 -0.0048428965 -0.010380453 -0.04871427
0001a0 64 cf 37 3d 50 aa 63 ba 31 df 90 3d 08 d1 98 bc
       0.044875517 -0.00086847413 0.070738204 -0.018654361
0001b0 b5 ba 1a bd 93 69 2b bd 59 e0 95 3d 39 bb f4 bc
       -0.037775714 -0.04184873 0.073181815 -0.029874431
0001c0 ed d3 45 bd ba 7f ac 3c f0 c5 40 bd 9b 75 67 bb
       -0.04829781 0.021056999 -0.047063768 -0.00353179
0001d0 07 10 24 bd 1b 59 39 3d b2 12 85 3c 10 8d 14 bd
       -0.040054347 0.045250993 0.016244266 -0.03626734

fc2.weight f4 [84, 120]
000000 a9 bf 54 bd b4 e5 2d bc c6 b2 e4 bc 5f 8d 9f bd
       -0.051940594 -0.0106138475 -0.027917277 -0.07790636
000010 43 74 0f bd 56 c6 a5 bd 4c af 01 bd f0 fc 23 3d
       -0.035022985 -0.0809447 -0.031661317 0.040036142
000020 36 ea c1 3c 12 a8 8c bd 12 7e 99 3b 37 80 f8 3c
       0.02367125 -0.06867994 0.004684218 0.030334575
000030 04 9c 42 bd 07 13 8b bd e9 17 a0 bd ea d9 5b bc
       -0.04751207 -0.067907386 -0.078170605 -0.013418654
000040 56 64 7e bd 05 81 10 3d c9 d8 77 bd 54 47 f5 bd
       -0.062107407 0.035279293 -0.060509477 -0.119764954
000050 ce 06 32 bc bb ec 0b 3d 47 8b 28 3d 51 5b 29 3d
       -0.01086588 0.03416131 0.04114845 0.04134685
000060 d9 f0 a5 bd 1d 8b 9c bd c4 be 79 bd 65 14 9f 3c
       -0.08102579 -0.07643721 -0.060972944 0.019418905
000070 2d 9f 68 bd 1c 20 06 bd 89 10 2a bd 95 43 c8 3c
       -0.056792427 -0.032745466 -0.041519675 0.024446288
000080 2f 09 2c 3c 01 f4 95 3c 92 91 08 3c 08 11 86 bd
       0.010500236 0.018304827 0.008335488 -0.06546217
000090 11 e1 45 3d 4c e9 94 bd c9 38 67 3c d4 44 6f 3d
       0.048310343 -0.0727106 0.01411266 0.05841525
0000a0 e8 40 26 3d 92 a7 f6 3a 18 9e 8c 3d f4 e2 53 3b
       0.040589243 0.001881825 0.068660915 0.003233132
0000b0 d9 87 5e bd e1 eb 84 3c d2 05 2d bd 4b 48 19 3d
       -0.054328773 0.016225757 -0.04224188 0.03742246
0000c0 5c cd 9b bd d9 00 d1 bc 08 b3 e4 3c 38 58 7c bd
       -0.076075286 -0.0255131 0.0279174 -0.06160757
0000d0 9d 7b b7 3c 2c fd aa 3c 3f af 1b 3d de 42 e9 bd
       0.02239781 0.020872675 0.038008925 -0.11389707
0000e0 88 f2 ec bd e9 7c 55 3d 6d 45 23 bd 9b 81 fa bc
       -0.11569697 0.052121077 -0.03986113 -0.030579379
0000f0 ca 5e af bd 50 0e 57 bc b8 1f 4f 3d a8 d4 25 3d
       -0.085630015 -0.013125971 0.05056736 0.040486008
000100 9e 1c ca bd aa 4c 03 bd 07 62 15 3d 53 36 ca bd
       -0.098687395 -0.032055534 0.03647044 -0.09873643
000110 b8 77 f9 3a 20 93 cc bd da a7 d5 bc 95 7f 53 3d
       0.0019032871 -0.09988999 -0.026081014 0.051635344
000120 a3 43 90 3d 41 7d 0d be ce 24 bc 3b 2c df 42 3d
       0.07044151 -0.13817312 0.005741692 0.047576115
000130 13 d9 30 bd ab 4e af bd 65 1f 17 3d 90 97 aa bd
       -0.043175768 -0.085599266 0.036895175 -0.083296895
000140 ba 3e bc bd fc da 98 bd 35 4e 97 3d 95 09 9a bc
       -0.09191652 -0.07463643 0.07387964 -0.018803397
000150 eb c3 19 be e1 2f 73 3c 11 73 4c bd e9 10 aa bd
       -0.15016143 0.014842958 -0.049914423 -0.083040066
000160 ec 34 88 bd be 84 a0 bd 8e cd 17 3d 2c 51 7e bd
       -0.06650719 -0.078378186 0.037061267 -0.06208913
000170 a4 bc ba bd 44 49 e4 3d 8a d3 cf bd 9d 09 a7 bd
       -0.091180116 0.11146787 -0.1014777 -0.081561305
000180 85 d2 38 bd e9 c3 a5 3d cc 2a 11 bd 2d 6f 33 3b
       -0.045122642 0.080940075 -0.035441205 0.0027379498
000190 07 46 80 bb 95 2d 4f bd 8c a1 26 3d 3b ee 55 bb
       -0.003914598 -0.05058058 0.040681407 -0.0032643217
0001a0 1a 57 b7 bd 4f f3 8e bd 8b 5c 46 bd 57 39 57 bd
       -0.0895216 -0.06980001 -0.0484281 -0.052544918
0001b0 e1 0d ce 3c 54 37 2c 3d a9 f0 30 bd a0 6d 06 3c
       0.025153102 0.042044953 -0.04319826 0.008204848
0001c0 6a 49 a3 3c 34 02 3f bd e8 e4 03 3d 4c 07 d8 bd
       0.019932467 -0.04663296 0.032200724 -0.10548267
0001d0 c4 3b 60 3d a6 75 12 3d bc 9c b4 3d bf 7d 19 be
       0.054744497 0.03575673 0.08818957 -0.14989375
0001e0 e3 47 a9 3d b3 2b 9d 3b 7e 0d 85 bb 3e 96 e8 bc
       0.082656644 0.004796469 -0.0040604463 -0.028391954
0001f0 59 26 59 bd c2 94 6d 3c a0 93 b3 bb 15 18 4e bd
       -0.053015087 0.014500799 -0.0054802448 -0.050315935
000200 af 36 63 3d 17 bf c7 bd a5 c0 60 3d ab 88 69 bd
       0.055472072 -0.09753244 0.05487122 -0.057015102
000210 e2 9c a0 bd 54 af db 3b 62 49 09 3d 76 74 bb 3a
       -0.07842423 0.0067042504 0.03351725 0.0014301676
000220 a7 e1 a6 bd f0 80 89 3d 12 f9 43 bd 04 33 97 3c
       -0.081485085 0.06714046 -0.047844954 0.018456943
000230 18 f1 47 3d 21 aa a9 bd fc 4b a9 3c f7 85 5b bd
       0.04881391 -0.08284403 0.020666115 -0.053594556
000240 d0 f7 cd bd 9e 22 05 bd e3 c2 9b bd f3 23 de 3c
       -0.10057032 -0.032503717 -0.07605531 0.027116751
000250 1c 03 18 3d cc 6b 80 3d 7b 2b a0 bd 94 bc 2a bd
       0.03711234 0.062705606 -0.07820793 -0.04168375
000260 c7 ed 5b 3d 49 9f 28 bc 08 95 fd bc 7b ae 95 3b
       0.05369356 -0.010291883 -0.030954853 0.004567919
000270 4a 3f 51 bc 7b 94 17 bc ba b0 a6 3d 7d d2 f8 bc
       -0.012771437 -0.009251709 0.08139177 -0.030373806
000280 3b 1c b3 3c 13 f2 c5 bd 11 be 12 3d 11 c1 88 bd
       0.021864047 -0.096653126 0.035825793 -0.066774495
000290 aa 30 a6 3c c4 8f b8 bb 94 de 10 bd 26 74 87 3d
       0.020286877 -0.0056323726 -0.035368517 0.066139504
0002a0 a1 ea 33 bd 18 da ba 3d f1 3e c7 bc bb 21 39 3d
       -0.04392493 0.09123629 -0.024322005 0.045198184
0002b0 91 6a 62 bd 7f b8 cc bd ed a3 29 3d c1 e7 9a 3c
       -0.05527741 -0.09996127 0.041416097 0.018909337
0002c0 22 19 a4 bc 70 7a 30 3d 3f 96 54 3c 2a 2c 93 bc
       -0.020031516 0.043085515 0.012975275 -0.017965395
0002d0 0c 97 94 bd 92 3c 18 bd 82 31 67 bd df 10 0c 3d
       -0.072553724 -0.03716714 -0.0564437 0.034195777
0002e0 f3 8b c3 bd d1 41 36 3d ae 64 c4 3c 1f aa c9 bd
       -0.095481776 0.04449636 0.023973789 -0.09846901
0002f0 33 44 27 3b c7 61 e9 bd 65 1e 08 3b 6e 22 ae 3c
       0.0025522828 -0.11395603 0.002077007 0.021256652
000300 da 60 c0 bc f1 60 44 3c 37 fa af 3d 4f 8d 16 3c
       -0.023483682 0.011986003 0.085926466 0.009188964
000310 4f 76 2e bd f7 d0 27 bc aa 64 a4 bc 45 ba 9b bc
       -0.042593297 -0.010242692 -0.020067532 -0.019009719
000320 5b 03 88 bd f8 e7 14 bd e2 5b 0e 3b 96 00 be bd
       -0.06641265 -0.036354035 0.0021722247 -0.092774555
000330 ee 26 d6 3c d3 46 17 bd c2 b3 96 bd b0 86 b9 bb
       0.02614161 -0.036932778 -0.07358505 -0.005661808
000340 80 3b b9 3c 4e f1 c9 bd 69 ea d7 3b 5d 70 58 bc
       0.02261138 -0.09860478 0.006589223 -0.013210383
000350 64 9a de bc e1 cb 44 bd 6d d2 44 bd 58 8f e5 3c
       -0.027173229 -0.048045997 -0.04805224 0.028022453
000360 e2 15 9d bd 4a 4f 93 bd 3f 2d b9 bd d8 e8 40 bc
       -0.076701894 -0.071928576 -0.09041833 -0.011774264
000370 0b 65 a8 3c c9 46 c2 bd db 69 08 bd 58 e5 6e 3d
       0.020555994 -0.094861574 -0.033304077 0.058324188
000380 d2 89 e0 3c ac 70 6a 3d aa 9e 43 bd 0c 78 ae 3d
       0.027409468 0.05723636 -0.047758736 0.08518991
000390 a5 3e a7 3d 5c 1f 66 bd 3f d9 5e 3c d2 0e 54 bd
       0.08166245 -0.05618225 0.0136016 -0.051771946
0003a0 05 a0 8e 3d 30 a4 9e bc 21 a1 7b 3d da d3 93 bd
       0.06964115 -0.0193654 0.06143296 -0.07218142
0003b0 25 d3 a3 3d 9f 79 5e bd ef ff 86 bb 56 f0 22 3d
       0.07999257 -0.054315206 -0.004119865 0.039779983
0003c0 8a f7 81 3c 28 8a 66 bd 19 0c fb bd f4 5e b7 3d
       0.015865106 -0.0562841 -0.12258167 0.08953658
0003d0 63 16 b8 3d 0f 21 5c 3c ec 51 55 3e 7b ac 8c 3d
       0.08988645 0.013435616 0.20832032 0.068688355
0003e0 f9 c1 41 be b1 f3 5f bd 9a 83 55 bd 7a 4e 8a 3d
       -0.18921651 -0.05467576 -0.05212746 0.067532495
0003f0 27 24 be bc cb fe b8 bd 0f 17 7a 3d 6e b8 d6 bb
       -0.023210598 -0.09032973 0.061057147 -0.0065527475

fc2.bias f4 [84]
000000 0d 1c 88 bd d4 eb 3e bc 14 be f8 3d d9 e8 df 3d
       -0.06645975 -0.0116529055 0.121456295 0.10933084
000010 33 62 84 bc 87 ca 9c bd 2e 69 c5 3c f0 35 7b 3d
       -0.016160106 -0.076558165 0.024098005 0.061330736
000020 71 e1 96 3d 05 51 d0 bc 32 24 5c 3d 69 05 6d 3d
       0.07367218 -0.025429258 0.053745456 0.057866488
000030 8d 9e f6 bd 08 30 65 bd 88 e1 15 3d 4e ce ba 3c
       -0.1204196 -0.05595401 0.036592036 0.022803452
000040 4b 8b 32 bc b2 51 18 bd 0a 41 7d bd de c8 74 3d
       -0.010897468 -0.037187286 -0.061829604 0.059761874
000050 a7 31 81 3d c4 21 6a 3d 00 41 07 3d 22 59 5b bd
       0.063082986 0.057161108 0.033020973 -0.0535518
000060 d5 7c 12 3d 02 e2 05 bc 8b e6 99 bd 9e d8 28 bd
       0.03576358 -0.00817156 -0.07514676 -0.041222207
000070 c2 13 78 3d 72 21 92 bd f9 f5 76 3d 60 1e ee 3c
       0.060565718 -0.071352854 0.06029317 0.029067218
000080 b7 f1 a3 3d c6 b2 b9 3d 14 ae d7 ba fb 9f 80 bd
       0.08005088 0.090673015 -0.0016455078 -0.06280514
000090 af 64 15 bd bb d2 01 bd 1d dd 2f 3b 54 f7 06 3e
       -0.036472972 -0.03169511 0.0026834675 0.13180286
0000a0 ce ed 9b 3d 54 f3 57 bd bc 29 82 bd 47 09 e6 3d
       0.07613717 -0.05272229 -0.063556165 0.11232238
0000b0 0e 6e a7 3c 5a ff af bc c1 c2 9a bd 30 0a 80 3d
       0.02043822 -0.021484066 -0.075566776 0.06251943
0000c0 4b 3b b2 bd 08 a1 7c bd b4 b3 bb bd 27 ed 31 bd
       -0.087027155 -0.06167701 -0.09165135 -0.043439057
0000d0 61 83 54 bd 45 14 75 bd 0d 3d b5 3c 6e 55 c0 3c
       -0.051883105 -0.059833784 0.022123838 0.023478236
0000e0 34 4b 02 bd 85 2b 47 3d d3 d8 b8 bd 16 14 a3 3c
       -0.03181 0.048625488 -0.09025731 0.019907039
0000f0 71 4d e3 bd 66 d9 cb 3d 01 9e 73 3d e5 05 a2 bd
       -0.11098755 0.09953575 0.059476856 -0.079112805
000100 49 91 95 3d 42 04 b0 3d 06 62 06 3e 27 a5 e9 bd
       0.073031016 0.08594562 0.1312333 -0.114084534
000110 ab 36 ab bd b5 bd 7f 3d 5a 70 da 3c 89 3f 42 3d
       -0.083600365 0.062436778 0.026664902 0.047423873
000120 ce fa 80 3d c2 f1 88 3d f2 d5 cd bd e1 af eb bd
       0.06297837 0.06686737 -0.100505725 -0.115081556
000130 b6 31 c4 3c 50 46 c1 3b fc af 54 3d 35 6f 16 3d
       0.023949485 0.0058982745 0.051925644 0.03672715
000140 7c 54 ac 39 61 7f 22 bd 96 a3 5f bd 25 9e 02 be
       0.00032869342 -0.03967226 -0.054599367 -0.1275564

output.weight f4 [10, 84]
000000 8b 20 6a 3d d9 56 88 3a 32 f2 0b be 77 7c 2d 3e
       0.05715994 0.0010401859 -0.13666609 0.16942011
000010 e3 b5 3f 3e 8d 7c 8c 3c ed 77 c9 bd fa b4 87 3c
       0.18721728 0.017149234 -0.09837327 0.016565789
000020 71 a9 24 be cf 2f 0a be cb 84 20 be 4b 8f 62 be
       -0.16080262 -0.134948 -0.15675656 -0.22124974
000030 9e 4d 90 bd b6 80 32 bd fe 0d 90 bc f8 07 4d bd
       -0.07046054 -0.04357978 -0.017584797 -0.050056428
000040 e3 3a 37 3d 66 1b 01 3e 18 43 df bd 40 fc 21 3e
       0.044733893 0.12608108 -0.10901469 0.15818882
000050 9b 90 21 3c f8 34 1a 3c bd e7 60 3c a1 59 ab 3d
       0.009861137 0.009412043 0.013727126 0.08366705
000060 6c 5d 8d be 17 28 ee 3b 4a 15 50 3b 33 ed b4 bd
       -0.27610338 0.0072679627 0.003175097 -0.08834305
000070 13 ff 47 be 4c 96 ca bd 99 bb 62 be af 7a 4d be
       -0.19530897 -0.09891948 -0.22141875 -0.20066331
000080 2e 8d 81 3d 21 25 3c bd b9 db ef bd 08 ac bd 3d
       0.06325756 -0.045933846 -0.11711831 0.09261328
000090 87 0b 6a 3c c4 85 e0 bd 6b 37 08 3e dc 19 22 be
       0.014284975 -0.10963014 0.1330239 -0.15830177
0000a0 04 91 63 be 41 a2 05 bd 78 a8 19 3a 29 b6 97 be
       -0.22223288 -0.03262544 0.00058615906 -0.29631165
0000b0 ef 2b 88 3c 15 bf 82 be 60 38 ed 3c 5d 90 1d be
       0.016622512 -0.2553641 0.028957546 -0.15387101
0000c0 2c 2d 42 3c 73 f9 9c bc 22 64 9a be a0 22 68 3c
       0.01185159 -0.019161915 -0.3015452 0.0141684115
0000d0 8f e3 a6 3d ba 01 72 be 58 75 ee bc c0 48 2f 3e
       0.08148872 -0.23633471 -0.029108688 0.17117596
0000e0 69 19 a3 3d fa 9e 92 bc 63 50 bd 3a 81 bc 2a 3e
       0.07963831 -0.017898072 0.0014443513 0.16673471
0000f0 31 e6 6c 3c 97 1c 0b be b1 ae f9 bd ca ec 9d bd
       0.014459179 -0.13585125 -0.12191523 -0.077111796
000100 57 16 96 bd 17 5d 71 be 9f f3 0a 3e 0c 2f 75 3d
       -0.0732848 -0.23570667 0.13569497 0.05985932
000110 71 b8 58 be 10 be 02 3e f4 5a b8 bd 28 e2 f0 3d
       -0.21164109 0.12767816 -0.09001723 0.11761886
000120 62 24 89 be 64 1b 17 3d 71 2c 0f bd 42 f9 b5 bd
       -0.2678557 0.036891356 -0.034954492 -0.08885433
000130 9f 8c b5 3d 0f 19 e8 3c e5 24 0f 3d 0f 41 0a 3e
       0.08864712 0.028332261 0.034947295 0.1350138
000140 e4 e0 28 be 16 be 8c bc 7c f0 9d bd 5c 36 11 be
       -0.16492039 -0.017180484 -0.077118844 -0.14180893
000150 3a c3 04 bd 6c a4 99 bc 73 83 d3 bc ef bb 64 be
       -0.032412745 -0.01875516 -0.025819516 -0.22337316
000160 7d 6c 71 bd 4b b2 eb bd 22 a9 1f 3e 68 97 87 bc
       -0.058941353 -0.11508616 0.15591863 -0.016551688
000170 a7 59 72 3c 04 7f 8d be a2 4f 81 bb 05 d1 20 3d
       0.014791883 -0.27635968 -0.0039462605 0.039261837
000180 ee ba 80 bd f6 17 2d 3e d7 d0 75 be 93 73 08 bd
       -0.06285654 0.16903672 -0.24005447 -0.033313345
000190 82 58 e5 3c 06 d0 af bd 48 ea ab bd 7d 52 3c be
       0.027996305 -0.08584599 -0.08394295 -0.18390842
0001a0 b0 5c fd 39 4e 3d 97 be 42 28 23 3e d9 80 2c be
       0.00048324978 -0.2953896 0.15933326 -0.16846026
0001b0 07 5b 3a bd a1 af 0d be 94 58 92 bd 06 c3 82 bd
       -0.045496967 -0.13836528 -0.07145801 -0.06384854
0001c0 95 2c af 3d 05 39 0b bd 8a 7f d9 3c 27 b6 18 bd
       0.08553425 -0.033989925 0.026550073 -0.03728309
0001d0 15 c8 c0 3d 31 28 a9 3d 14 f4 66 3d 44 3a b5 be
       0.094131626 0.08259619 0.056385115 -0.35396016
0001e0 21 70 ad 3d 5b 99 1d be ec 30 03 3e 1a fa dc 3d
       0.084686525 -0.15390532 0.12811631 0.107898906
0001f0 63 15 77 bd 65 81 39 3d b1 53 df bc f1 40 25 3d
       -0.06032313 0.045289416 -0.027261587 0.040345136
000200 39 41 05 3e f1 57 aa 3d 0a 2e 80 bd d8 e9 47 be
       0.13013162 0.08317555 -0.06258781 -0.19522798
000210 6b ca 9f bd 7e ca 83 bd ea 04 26 bd 03 32 4e bd
       -0.0780228 -0.06435107 -0.04053203 -0.050340664
000220 d7 d0 6c 3e 4d 7b 54 3d 39 1e ae 3c a8 58 20 be
       0.23126541 0.0518754 0.021254646 -0.1565882
000230 95 d3 b3 3c 22 83 bb bd 83 a4 00 bd fa 1e 33 3d
       0.021951476 -0.09155871 -0.03140689 0.043730713
000240 cc 23 87 3b 51 c8 4d 3e c4 c5 24 be de 4f cb 3d
       0.0041241404 0.20095946 -0.16091067 0.09927343
000250 70 34 fb bc 05 73 05 be ff 9f 20 3d b1 11 bb 3c
       -0.030664653 -0.13032158 0.039215084 0.022835584
000260 f8 26 0d 3e d6 de 6f be de b0 e0 3d d7 cc 50 be
       0.13784397 -0.23424849 0.10971235 -0.2039064
000270 dc 84 fa 3d 80 eb 0d be 38 6c ca bd 35 30 36 3d
       0.12232372 -0.13859367 -0.09883922 0.044479568
000280 90 dc 87 bd 33 7b 0d be 96 44 15 3e fa 9d 35 be
       -0.06633866 -0.13816528 0.14576945 -0.17736045
000290 02 47 61 be f4 fc f2 bd 74 f9 b9 3d 08 43 32 be
       -0.21999744 -0.11864653 0.090807825 -0.17408383
0002a0 07 a4 d1 bc 5b 90 73 bc 6a b1 2b be 48 57 21 3e
       -0.02559091 -0.01486596 -0.16766897 0.15755951
0002b0 ee 8b 68 be 20 b5 a8 bd 9e 23 9d 3d c4 90 04 3e
       -0.22709629 -0.08237672 0.07672809 0.12945849
0002c0 75 34 a0 be 60 7b 01 be e1 07 c3 3d ab 89 5e 3d
       -0.31290022 -0.1264472 0.09522987 0.05433051
0002d0 db 3a f2 bd ae 22 7c be 72 fe 79 bb a0 64 3e bd
       -0.11827632 -0.24622604 -0.0038146046 -0.046482682
0002e0 48 4f 78 3d 07 1b 2e bd f3 c2 34 3c fa 72 38 3e
       0.060622483 -0.042506244 0.011032808 0.1801261
0002f0 dc 50 ef 3d 96 e6 b0 3d 57 6c 3e bd 92 c2 51 be
       0.116853446 0.08637731 -0.04649004 -0.20484379
000300 c8 da 58 be ac 1f 17 be 10 28 a0 bd 79 ec 0f be
       -0.21177208 -0.14758176 -0.07820141 -0.14055051
000310 00 93 86 bc a8 6e 01 3c f1 80 af 3d 21 21 08 be
       -0.016427517 0.007899918 0.085695155 -0.13293888
000320 24 61 f8 3d 76 ee 09 3e 6d 5b 23 be e9 02 59 bd
       0.12127903 0.13469872 -0.15952845 -0.05298129
000330 d2 a3 88 3a a8 a3 15 be 16 7f 8e bd 20 26 47 be
       0.0010424799 -0.14613211 -0.069578335 -0.19448137
000340 b1 5a a9 bd 9b bd 21 be 04 f7 65 bd df c3 b5 bc
       -0.08269251 -0.15794985 -0.056143776 -0.022188125
000350 fc 1f 6a be 09 e1 40 bd 79 0a 14 bb 1b 10 6e bd
       -0.22863764 -0.04708961 -0.002258925 -0.058120828
000360 83 05 a6 3d f9 6e 5f bd 80 dd 2e bd f7 4c 23 be
       0.0810652 -0.05454919 -0.042691708 -0.15947329
000370 55 4b 18 be f4 60 ba bd 05 ed 84 be ac ef a0 3d
       -0.14872487 -0.091005236 -0.25962082 0.07858214
000380 f9 90 d6 bd 85 eb 46 be eb 33 66 3c b8 dc 58 3d
       -0.1047687 -0.19425781 0.014050464 0.05294487
000390 76 23 e3 bc 42 49 c5 bc 52 ff 93 3d 27 b4 b7 3d
       -0.02772687 -0.024082784 0.07226433 0.08969908
0003a0 26 69 29 3c 1d fe 56 3d de f2 06 3d 61 94 57 3d
       0.010340011 0.052488435 0.03294646 0.05263174
0003b0 f6 cb 08 3e b6 3f 0a be 2d a9 36 3e ad a0 5a 3d
       0.13359055 -0.13500866 0.17837973 0.05337589
0003c0 cc 76 86 3d ec 6e e1 bd 26 f6 22 3c e3 02 8e b7
       0.065656275 -0.11007485 0.009946382 -1.6929063e-05
0003d0 6c 2a 88 bd ad 5c 72 be 92 ac c7 bd 5b 38 e9 3b
       -0.06648716 -0.23668166 -0.09749712 0.007117314
0003e0 bf f0 85 bc a6 48 da 3c 01 63 94 bd af e2 16 bd
       -0.016350148 0.02664597 -0.07245446 -0.036837276
0003f0 54 b7 90 3d f2 43 00 bd 2f 2b 43 3e 61 99 f1 bd
       0.07066217 -0.031314798 0.19059442 -0.11796833

output.bias f4 [10]
000000 39 28 09 bd 8d 25 1c bd 5c fa c8 3c 8c 89 21 3d
       -0.033485625 -0.03812175 0.024533443 0.039437816
000010 41 26 10 3d ed c2 be 3d 59 a1 e1 bd 94 3f 04 be
       0.03519273 0.09314523 -0.11017103 -0.12914878
000020 02 7e 7e 3d 9f c2 9f 3c
       0.06213189 0.019501982
